…
             0,      0,      0,      0,      0,      0,      0,      0,      0,
             0,      0,      0,      0,      0,      0,      0,      0,      0,
             0,      0,      0,      0,      0,      0,      0,      0]), 'right_dist': tensor(0)}]
2023-04-14 16:36:21,722 INFO: valid data examples:
 []
[2023-04-14 16:36:21] (2.2.1) Caching dataset... please remove cached dataset if any problem happens.
2023-04-14 16:36:22,450 INFO: Model Architecture:
 APCEnsembler(
  (models): ModuleList(
    (0): FAST_LSA_T_V2(
      (bert4global): DebertaV2Model(
        (embeddings): DebertaV2Embeddings(
          (word_embeddings): Embedding(128100, 768, padding_idx=0)
          (LayerNorm): LayerNorm((768,), eps=1e-07, elementwise_affine=True)
          (dropout): StableDropout()
        )
        (encoder): DebertaV2Encoder(
          (layer): ModuleList(
            (0-11): 12 x DebertaV2Layer(
              (attention): DebertaV2Attention(
                (self): DisentangledSelfAttention(
                  (query_proj): Linear(in_features=768, out_features=768, bias=True)
                  (key_proj): Linear(in_features=768, out_features=768, bias=True)
                  (value_proj): Linear(in_features=768, out_features=768, bias=True)
                  (pos_dropout): StableDropout()
                  (dropout): StableDropout()
                )
                (output): DebertaV2SelfOutput(
                  (dense): Linear(in_features=768, out_features=768, bias=True)
                  (LayerNorm): LayerNorm((768,), eps=1e-07, elementwise_affine=True)
                  (dropout): StableDropout()
                )
              )
              (intermediate): DebertaV2Intermediate(
                (dense): Linear(in_features=768, out_features=3072, bias=True)
                (intermediate_act_fn): GELUActivation()
              )
              (output): DebertaV2Output(
                (dense): Linear(in_features=3072, out_features=768, bias=True)
                (LayerNorm): LayerNorm((768,), eps=1e-07, elementwise_affine=True)
                (dropout): StableDropout()
              )
            )
          )
          (rel_embeddings): Embedding(512, 768)
          (LayerNorm): LayerNorm((768,), eps=1e-07, elementwise_affine=True)
        )
      )
      (dropout): Dropout(p=0.5, inplace=False)
      (post_encoder): Encoder(
        (encoder): ModuleList(
          (0): SelfAttention(
            (SA): BertSelfAttention(
              (query): Linear(in_features=768, out_features=768, bias=True)
              (key): Linear(in_features=768, out_features=768, bias=True)
              (value): Linear(in_features=768, out_features=768, bias=True)
              (dropout): Dropout(p=0.1, inplace=False)
            )
          )
        )
        (tanh): Tanh()
      )
      (post_encoder_): Encoder(
        (encoder): ModuleList(
          (0): SelfAttention(
            (SA): BertSelfAttention(
              (query): Linear(in_features=768, out_features=768, bias=True)
              (key): Linear(in_features=768, out_features=768, bias=True)
              (value): Linear(in_features=768, out_features=768, bias=True)
              (dropout): Dropout(p=0.1, inplace=False)
            )
          )
        )
        (tanh): Tanh()
      )
      (bert_pooler): BertPooler(
        (dense): Linear(in_features=768, out_features=768, bias=True)
        (activation): Tanh()
      )
      (CDW_LSA): LSA(
        (encoder): Encoder(
          (encoder): ModuleList(
            (0): SelfAttention(
              (SA): BertSelfAttention(
                (query): Linear(in_features=768, out_features=768, bias=True)
                (key): Linear(in_features=768, out_features=768, bias=True)
                (value): Linear(in_features=768, out_features=768, bias=True)
                (dropout): Dropout(p=0.1, inplace=False)
              )
            )
          )
          (tanh): Tanh()
        )
        (encoder_left): Encoder(
          (encoder): ModuleList(
            (0): SelfAttention(
              (SA): BertSelfAttention(
                (query): Linear(in_features=768, out_features=768, bias=True)
                (key): Linear(in_features=768, out_features=768, bias=True)
                (value): Linear(in_features=768, out_features=768, bias=True)
                (dropout): Dropout(p=0.1, inplace=False)
              )
            )
          )
          (tanh): Tanh()
        )
        (encoder_right): Encoder(
          (encoder): ModuleList(
            (0): SelfAttention(
              (SA): BertSelfAttention(
                (query): Linear(in_features=768, out_features=768, bias=True)
                (key): Linear(in_features=768, out_features=768, bias=True)
                (value): Linear(in_features=768, out_features=768, bias=True)
                (dropout): Dropout(p=0.1, inplace=False)
              )
            )
          )
          (tanh): Tanh()
        )
        (linear_window_3h): Linear(in_features=2304, out_features=768, bias=True)
        (linear_window_2h): Linear(in_features=1536, out_features=768, bias=True)
      )
      (post_linear): Linear(in_features=1536, out_features=768, bias=True)
      (dense): Linear(in_features=768, out_features=3, bias=True)
    )
  )
  (bert): DebertaV2Model(
    (embeddings): DebertaV2Embeddings(
      (word_embeddings): Embedding(128100, 768, padding_idx=0)
      (LayerNorm): LayerNorm((768,), eps=1e-07, elementwise_affine=True)
      (dropout): StableDropout()
    )
    (encoder): DebertaV2Encoder(
      (layer): ModuleList(
        (0-11): 12 x DebertaV2Layer(
          (attention): DebertaV2Attention(
            (self): DisentangledSelfAttention(
              (query_proj): Linear(in_features=768, out_features=768, bias=True)
              (key_proj): Linear(in_features=768, out_features=768, bias=True)
              (value_proj): Linear(in_features=768, out_features=768, bias=True)
              (pos_dropout): StableDropout()
              (dropout): StableDropout()
            )
            (output): DebertaV2SelfOutput(
              (dense): Linear(in_features=768, out_features=768, bias=True)
              (LayerNorm): LayerNorm((768,), eps=1e-07, elementwise_affine=True)
              (dropout): StableDropout()
            )
          )
          (intermediate): DebertaV2Intermediate(
            (dense): Linear(in_features=768, out_features=3072, bias=True)
            (intermediate_act_fn): GELUActivation()
          )
          (output): DebertaV2Output(
            (dense): Linear(in_features=3072, out_features=768, bias=True)
            (LayerNorm): LayerNorm((768,), eps=1e-07, elementwise_affine=True)
            (dropout): StableDropout()
          )
        )
      )
      (rel_embeddings): Embedding(512, 768)
      (LayerNorm): LayerNorm((768,), eps=1e-07, elementwise_affine=True)
    )
  )
  (dense): Linear(in_features=3, out_features=3, bias=True)
)
2023-04-14 16:36:22,452 INFO: ABSADatasetsVersion:None	-->	Calling Count:0
2023-04-14 16:36:22,452 INFO: MV:<metric_visualizer.metric_visualizer.MetricVisualizer object at 0x00000153D948ADA0>	-->	Calling Count:0
2023-04-14 16:36:22,452 INFO: PyABSAVersion:2.2.1	-->	Calling Count:1
2023-04-14 16:36:22,452 INFO: SRD:3	-->	Calling Count:928
2023-04-14 16:36:22,452 INFO: TorchVersion:2.0.0+cpu+cudaNone	-->	Calling Count:1
…
